…
Novo formato do dado: (40512, 64, 64, 1)
Nenhuma borda adicionada
Novo formato do dado: (212, 64, 64, 1)
Informacoes gerais:
 - modelo: /opt/ml/model/FCN_9_SolimoesTacutu_64x64.ckpt
 - Conjunto de treinamento:
    - Total: 40512
 - Conjunto de validacao:
 - Tamanho do batch: 2048
 - Numero de epocas: 5
 - Taxa de aprendizagem inicial: 0.1
 - Taxa de decaimento: 0.01
 - GPUs solicitadas: 1
Model: "model_1"
_________________________________________________________________
Layer (type)                 Output Shape              Param #   
=================================================================
input_1 (InputLayer)         (None, 64, 64, 1)         0         
_________________________________________________________________
conv2d_1 (Conv2D)            (None, 60, 60, 20)        520       
_________________________________________________________________
max_pooling2d_1 (MaxPooling2 (None, 30, 30, 20)        0         
_________________________________________________________________
conv2d_2 (Conv2D)            (None, 26, 26, 50)        25050     
_________________________________________________________________
max_pooling2d_2 (MaxPooling2 (None, 13, 13, 50)        0         
_________________________________________________________________
conv2d_3 (Conv2D)            (None, 1, 1, 500)         4225500   
_________________________________________________________________
dropout_1 (Dropout)          (None, 1, 1, 500)         0         
_________________________________________________________________
conv2d_4 (Conv2D)            (None, 1, 1, 2)           1002      
=================================================================
Total params: 4,252,072
Trainable params: 4,252,072
Non-trainable params: 0
_________________________________________________________________
Training ...
('Tempo de inicializacao: ', 0.18193793296813965)
Train on 40512 samples, validate on 212 samples
Epoch 1/5

Real time: 1592495425.2

 2048/40512 [>.............................] - ETA: 1:33 - loss: 0.7582 - accuracy: 0.4780
…
